checkpoint.pth (torch, 22303 bytes, 6 tensors)

fc1.weight f4 [64, 8]
00000000: 6e40 c0bd 6bdb 42be 43d6 c2bf b6ef b3bf
00000010: 9d35 5b3f 21b5 d43e e94d 9cbe b544 e13e
00000020: 7b22 1e3d 1c37 e9be 860e 373f dff6 ecbe
00000030: db88 51bf 4cbe 55bf 46a2 533e af42 c23e
00000040: 5158 ae3e 1181 3fbc d2a9 363e e25d 863d
00000050: d7c0 0b40 c3aa b63f 0ad2 c9be cc5b 563e
00000060: 66dd 7dbe 8199 a5bf 93f4 6c3e dd9f 38bf
00000070: a634 10bf a48e 31bf 7a96 a83e c9b9 303f
00000080: a514 adbc f99b 113e 403d b0bf d317 b0bf
00000090: ed69 8d3f c849 8a3e 363b b63e ebd0 4ebb
000000a0: d7f3 313e 98ad 85bc cb22 b9be 57da 9cbd
000000b0: d5fb 93bf 82ac 75bf 913f d53e 1432 b13e
000000c0: 728e dfbe a448 babd bcbf f2bd 7ad9 43be
000000d0: ceba ae3e c7e9 053f d692 d53e b01a ddbe
000000e0: 77ab 653e aa55 8bbf 1246 b8be b2d3 7cbf
000000f0: a22a 173f 9519 6dbe f58d 03be 00ca 443e
00000100: aa32 ad3f 7786 72be 2f34 7b3f f124 69bd
00000110: 02e1 b7bf 77cf 85bd ea1e 78be 40be acba
00000120: cfdd 163d 2d5e 133f b736 efbe 5e2d 023f
00000130: f964 c63e 106e 55bf 8946 87bf eab7 58bf
00000140: 743b 48bf 5b6c 513f d979 4a3f f2cd 90bf
00000150: ff94 d23f 7e32 5abe 710d a23e b19a b1be
00000160: cf92 063f da17 a0be f0b3 eabe 3218 e93d
00000170: cf9e 89bc d838 633f d690 24bf 8796 95bf
00000180: ed5e bc3e b977 06bf 3e82 4fbf 1d35 3ebf
00000190: 987b 823f 2c3c 273f 3105 aa3e cf6d 3abf
000001a0: 2914 083f cc2b 45bf 5de1 e4bf a1b4 98be
000001b0: 8d2f 41bf c20c 1fbe 85cf 823e 587c 563e
000001c0: c2ad 45bf 25df 3d3f 7602 843f 3eb3 84bf
000001d0: 9c83 983f b3da 04be d4d5 183f 2213 8bbd
000001e0: 0cbf 4cbf 4c59 1abe 692c 19bf 8f84 803f
000001f0: 98a2 02bf 9501 abbf 3a27 afbf aa58 a03e
00000200: a62d 8fbe 78b2 76c0 7cf7 553e 62e9 cabe
00000210: 4991 703e 4bd7 a8bf 5777 003f 1330 52be
00000220: bc96 e43e c4e1 1f3e ad0e a1be e00e 043f
00000230: af51 3d3e 9b77 0c3f 9e16 373f c964 00bd
00000240: 9926 4fbf 1f31 58be bf6e a43f 08eb 2c3f
00000250: d36f 043f 9fb2 82bf c239 b13e 5c6d c63e
00000260: 9d0b e5be 075a 133f 9ad6 283f 5d47 6cbf
00000270: c1e8 9f3f 53ff 38bf 9660 ff3e db8f abbe
00000280: 1ca2 dabe 1a1b 8fbf 964f 203f f46e d7bf
00000290: 8a69 073e ed7e fbbd ed35 a1be edbb 0fbe
000002a0: f215 9a3c 77da 853e 5555 2b3f ffe3 a2bf
000002b0: 577e bcbe d226 403e 56f0 b8bd 6625 833e
000002c0: 9d59 943f 6039 c3bf d065 0cbf ebcd 8ebf
000002d0: 29df 9cbd 5c42 f4be 9870 293f c20e 383d
000002e0: 4c1c 213f ef3c 39be b98d 28c0 1688 bcbe
000002f0: 6245 45bf 0a04 a83d b587 13be 6aca 6c3e
00000300: d085 fabf 4c73 ffbf 1693 833e c90a a8be
00000310: 3e2b 6a3f efa5 663e fbad ebbd 068d 51be
00000320: b8e1 21bd 73cd e5bf 9446 92bf dada 6e3f
00000330: 60d0 c73e c108 9e3f 66a4 7abe f606 053f
00000340: bf50 633f 3ce7 b2bf 9729 b5bd 1280 8cbf
00000350: 6824 aabf 8ab1 82be a211 083e a906 b1bc
00000360: eac1 99be 552e 153e 924f 6e3f 9a48 99bf
00000370: d817 d6be b36e 013f 6655 0b3e 4005 f33d
00000380: f39e 05c0 95fb d6bf faf9 243a 696a 56bf
00000390: 41cc 143f 3809 20bd a5bf 1cbe 8393 403e
000003a0: bed4 afbe 027f 893f 81df b83f 697f 80bf
000003b0: 65d2 483f 6286 403e 4b0a 1e3f 8ac5 2ebd
000003c0: d66d c7be b6ed ef3e 7430 90be 2bd4 35bf
000003d0: 1357 eebe fb94 f1be 3a80 683f 73ec d63e
000003e0: 2b68 81bf e84c ea3e 4bf9 0e3f 5024 ef3f
000003f0: 74af 253f a0bb a13f af11 fdbe cb4c e7be
-0.09387289 -0.19029014 -1.5221637 -1.4057529 0.8562868 0.4154444 -0.3052819 0.43997732
0.038607102 -0.45549858 0.71506536 -0.46282098 -0.8184945 -0.83493495 0.20667371 0.379415
0.34051755 -0.011688487 0.17838219 0.065608755 2.183645 1.4270862 -0.3941806 0.20933455
-0.24791488 -1.2937471 0.23140173 -0.7211893 -0.56330335 -0.6935828 0.32927305 0.69033486
-0.021128008 0.14219655 -1.3768692 -1.375727 1.1047951 0.27009416 0.3559205 -0.003155763
0.17378174 -0.016318128 -0.36159357 -0.076588325 -1.1561228 -0.9596635 0.4165006 0.3460852
-0.43663365 -0.09095886 -0.11852977 -0.1912593 0.34126896 0.5230984 0.4171359 -0.43184423
0.2242869 -1.0885518 -0.3599096 -0.9876052 0.5904943 -0.2315429 -0.12847121 0.19217682
1.3531086 -0.23684107 0.981265 -0.056919996 -1.4365542 -0.065337114 -0.24230543 -0.0013179258
0.036832627 0.57565576 -0.46721432 0.50850475 0.3874891 -0.8337107 -1.0568401 -0.8465563
-0.7821572 0.8180596 0.79092175 -1.131285 1.645172 -0.21308324 0.3165088 -0.34688333
0.5256776 -0.31268197 -0.45840406 0.11381568 -0.016799359 0.8875861 -0.642835 -1.1686562
0.36791173 -0.5252643 -0.8105811 -0.74299794 1.0193968 0.6532619 0.33207086 -0.72823805
0.5315576 -0.77019954 -1.7881275 -0.2982531 -0.7546318 -0.1553221 0.2554895 0.20945871
-0.7721826 0.74168617 1.0313251 -1.03672 1.1915164 -0.12974052 0.59701276 -0.06790759
-0.79979014 -0.15073127 -0.5983339 1.0040454 -0.5102935 -1.3359858 -1.3683846 0.31317645
-0.27964514 -3.8546429 0.20895189 -0.39631182 0.23492922 -1.3190702 0.501821 -0.20526151
0.4464625 0.15613467 -0.3145651 0.515852 0.18488191 0.54870003 0.71518886 -0.031346116
-0.8091827 -0.21112488 1.2846297 0.6754613 0.5173313 -1.0210761 0.34614378 0.3875531
-0.44735423 0.57559246 0.65952456 -0.9229639 1.2492906 -0.72264594 0.49878377 -0.3350819
-0.42701805 -1.1180146 0.6262144 -1.6830735 0.13223854 -0.122800685 -0.31486455 -0.14036532
0.018809292 0.26143238 0.6692708 -1.2725829 -0.3681514 0.18764809 -0.090302154 0.2561447
1.1589848 -1.5251884 -0.54842854 -1.1156591 -0.07659752 -0.47706878 0.6618743 0.04493595
0.629338 -0.1808965 -2.63365 -0.36822575 -0.77058995 0.082038954 -0.14407237 0.2312409
-1.9572086 -1.9957061 0.25698155 -0.32820728 0.9147223 0.22524236 -0.115077935 -0.20463952
-0.039521903 -1.7953323 -1.1427789 0.9330269 0.39026165 1.2346421 -0.24476776 0.51963747
0.88795084 -1.3976817 -0.08845823 -1.0976584 -1.329236 -0.25526077 0.13287976 -0.021609621
-0.30030757 0.14568456 0.93090165 -1.1975281 -0.41815066 0.5055954 0.13606796 0.11866236
-2.0878265 -1.6795527 0.0006293353 -0.8375612 0.58124167 -0.03907129 -0.15307482 0.18806271
-0.34341997 1.0741885 1.4443208 -1.0038882 0.78446037 0.18801263 0.61734456 -0.042668857
-0.38950986 0.46861047 -0.28161967 -0.7102687 -0.46550807 -0.47183976 0.9082066 0.4197727
-1.0109915 0.457618 0.5584914 1.8682957 0.64720845 1.2635384 -0.49427554 -0.45175776

fc1.bias f4 [64]
00000000: 229b 0abe 6ac4 0bbe 0d1d 81bd 6d7f 09be
00000010: 30c9 b0be 32ca 1fbe 18ce 8a3e 7a95 183f
00000020: b09a d33d 5b94 ea3d aae9 033f dda2 ee3c
00000030: c9dd 03bf 0ece f9be 9ebb 063f 3708 c8bd
00000040: b422 8d3e e80e eebe e7b7 093f 2539 483f
00000050: 7267 10bd df61 ba3d 6284 6abe 90dd b33e
00000060: c2c3 7bbe 8377 adbe 3daa 2cbe a013 9d3e
00000070: 7f74 43bd 7f45 11be 5583 343e e996 293f
00000080: 5fa6 a9bc d906 a03e 629f 52bf cf7c d13e
00000090: 0a67 03bf 8fe8 1d3f 97be abbe b106 e9bc
000000a0: 223b d03e fa48 d3be d488 4f3e 4dc4 d63e
000000b0: dfed b4be 8d14 9e3e 9f00 183f 5f4c a9be
000000c0: a5a2 7f3d 75b2 343e 3113 153f fa01 4c3f
000000d0: afe6 f23e f596 703f 37de 69be d866 d73d
000000e0: 092e 2f3f 9204 ab3d 7340 e0bd fc12 093f
000000f0: 1024 8fbe 4de9 73be 64b1 5a3f f9a6 f83e
-0.13535741 -0.13649145 -0.06304369 -0.13427515 -0.34528494 -0.15604475 0.27110362 0.59603083
0.10332239 0.11454078 0.5152842 0.029130394 -0.5151029 -0.4879002 0.5263003 -0.09767192
0.2756554 -0.46495748 0.5379624 0.78212196 -0.035254903 0.09100699 -0.22902063 0.35129976
-0.24586394 -0.33880243 -0.16861816 0.30679035 -0.04771852 -0.14186667 0.17628224 0.66245896
-0.020709215 0.31255224 -0.8227445 0.40915534 -0.513291 0.6168298 -0.33543846 -0.028445574
0.40670115 -0.41266614 0.2026704 0.4194664 -0.3533773 0.30875054 0.5937595 -0.3306608
0.06241097 0.17646201 0.5823241 0.79690516 0.47441623 0.9398034 -0.22838674 0.10517663
0.6842962 0.08350481 -0.10949793 0.5354459 -0.279572 -0.23819466 0.85426927 0.4856489

fc2.weight f4 [64, 64]
00000000: 2dea a1be 7c5a 00bf 8dfd d23e 4b12 90bd
00000010: 3f2e 103f b5e9 90be 321c 233e 7650 d4bd
00000020: 4d66 9c3f 9df2 bb3e d60a 1bbe c9fa 7bbc
00000030: 6a24 003f 15ce 4bbc 39f4 e6bc efd1 4ebf
00000040: 36b1 e7bd bbce cc3e 420b e73e 0197 99bd
00000050: 0bf4 183f cb7f 71be 38c3 7e3e afa0 51bf
00000060: 457d 963f c754 f9be bde6 5e3f 7ce5 84bc
00000070: 9765 d13e 043d 213e b92c 52be 5ce0 babe
00000080: 84ab c4bf d5f9 833f a33a fe3e ec9a 88bd
00000090: c66b 193e 6ffc ef3d 309d 353d de61 953f
000000a0: b2ca 903e 103c 943e 24ca ad3e 769a 123f
000000b0: de4c d03f 2580 4ebe 7a42 62be 15d3 013d
000000c0: 63a8 83be f332 27bf 76fb 1b3f 981b 15bf
000000d0: 18c7 30bf cdf4 a73d 0b74 093f 6e55 493f
000000e0: 4cab 003f b329 ddbd 38e1 c93d 4f88 f43d
000000f0: 1daa 7bbe 5086 173f ed8d f6bd a75c 283f
00000100: 1751 1ebd 74e9 253e 7586 2abb d194 ce3d
00000110: 926b 0e3d 66e8 983e cbf1 863e 39be debd
00000120: b694 263f 5e7c 9dbd 529c e03c 5c70 313f
00000130: 925f b43e c3b8 093f 9eeb 30be 213c eebe
00000140: 21bb 86be 4276 4c3e 072c 9fbd f557 203c
00000150: 5ac0 653f 76b3 e4bd 6c64 3d3f 6e3c 91bd
00000160: 5128 643f f4f2 fbbe 2094 3f3f da17 cfbd
00000170: aa14 e63d 0fe8 17bd adee 133d 3a9c 6c3f
00000180: 488a 86be 22c9 f73e 490e 243f d2c1 953e
00000190: d7ca 6b3f dfa5 e43d ca4f af3d 6f5e 973f
000001a0: c389 aa3e 1981 59bf db19 963e 6058 433f
000001b0: 5743 0840 a846 273e dc57 b83d f3bd 91be
000001c0: e833 b8bf ebcc 03bf 62bf bcbd dbd2 613e
000001d0: 4c37 283e 269d 923e 5892 433e bf5c 343f
000001e0: 6302 9bbe c0f7 723d 9797 f73d 927b 8e3d
000001f0: 2d6c 3dbe f674 1a3f f394 a4bf 799c e33e
00000200: d6a6 3e3e d807 833e 3faa 6b3e f3d5 8f3e
00000210: 8740 313f 14e6 923e 28e3 543e 7cd1 9ebe
00000220: a4dd 413f 43e4 d53d e1a2 df3c 193c 413f
00000230: b5e5 5a3e 6065 f23e 7e76 a43c 01a2 c1be
00000240: 65bd 6c3e 212d 87be 00e0 353d b40e 3ebe
00000250: 103a 693f 8692 ec3c 3e31 283f a335 1dbe
00000260: 91c6 c83f 1572 cfbe a598 a63f ee8e 283e
00000270: c2fe 2e3f b1a7 a93c 712e 073e 393e 653f
00000280: 4e41 1abf 4c3e 063f f76a d03e c6f1 babb
00000290: 258a cb3e a3aa 0a3e ccf7 ca3d 7e86 9d3f
000002a0: 89f2 ab3d 626e 023f 1c15 ad3e 0f62 493f
000002b0: f679 3140 6972 6b3e cc6b e6bd 7826 8ebe
000002c0: 02c1 85bf ed1d 8abe 0998 4abe 85f6 9abd
000002d0: d03b a03d d15e 1d3e f629 043f b785 973f
000002e0: 642c 7abe 1815 c53e b542 5c3d d9e3 353e
000002f0: f760 f23c 6b69 0c3f 489c 82bf 2932 e93e
00000300: 1e28 973e 6eff a43e f78f 0f3f f5c2 9a3d
00000310: bdb9 aa3f df87 393e feb5 003f 42d4 77be
00000320: 3601 863f ee64 38bd 41da 373e 8656 e33e
00000330: e2a2 283d be27 0a3f 7f75 f13d 6b68 7cbf
00000340: 92ba 833d ede4 243e 5abd 89bb 155d 5fbe
00000350: 24f6 973f 1808 b83e a03c 503e 36e4 a73c
00000360: 4ed9 ee3f a584 2bbd 6ecc bf3f f648 ad3e
00000370: 1f6a 3e3f 232e c33d 642a 653e 4920 903b
00000380: 1806 19bf c1bd 103f 50cb 0a3f 6541 67bd
00000390: 788f b63e 3082 433e 0690 fe3d e964 8d3f
000003a0: 66a9 0f3e 435e 863f 7093 e03c 054e 5b3e
000003b0: 15ff 2740 ee58 3c3e 5410 8f3d 01fc b43d
000003c0: cfbf 8abf 51ac 68be 9b4e 9abe eac4 1dbd
000003d0: dc9e 7a3d 6ad6 a13e 3850 2e3f 1c93 573f
000003e0: 93e6 08be 9a9f a8bb 54f0 2a3e b53f 033e
000003f0: 8cc6 293e fb4f 043f 3260 38bf 9f7e 0b3e
-0.31623974 -0.5013807 0.4120907 -0.07034739 0.56320566 -0.28303304 0.15928724 -0.10366909
1.221872 0.36708537 -0.15140852 -0.015379616 0.50055563 -0.0124392705 -0.028192626 -0.80789083
-0.11313097 0.40001473 0.45125777 -0.07499505 0.5974738 -0.23583905 0.24879158 -0.8188581
1.1756979 -0.48697492 0.8707083 -0.016222708 0.4089782 0.15745932 -0.20524873 -0.36499298
-1.5364842 1.0310618 0.4965411 -0.06670174 0.14982519 0.1171807 0.04433936 1.1670492
0.28279644 0.28952074 0.33943284 0.5726694 1.6273458 -0.20166071 -0.22095671 0.031695444
-0.25714406 -0.6531212 0.60930574 -0.5824523 -0.6905379 0.08200989 0.5369269 0.7864598
0.5026138 -0.10798969 0.0985741 0.11940061 -0.24576612 0.5918932 -0.12038789 0.65766376
-0.038651552 0.16202337 -0.0026020084 0.10086978 0.034770556 0.29864806 0.26356348 -0.10876126
0.65070665 -0.07689737 0.02741829 0.6931207 0.35229164 0.5379755 -0.17277381 -0.4653025
-0.26314643 0.19966987 -0.077720694 0.009786596 0.8974663 -0.11167042 0.73981357 -0.07091604
0.8912402 -0.49208796 0.74835396 -0.10111971 0.1123441 -0.037086543 0.03611629 0.9242588
-0.26277375 0.4839564 0.640843 0.29249436 0.92106384 0.1116445 0.085601404 1.1825694
0.3330823 -0.8496261 0.293166 0.76306725 2.12911 0.16335547 0.09001133 -0.28465232
-1.439084 -0.51484555 -0.09216191 0.22053091 0.16427344 0.2863552 0.19098794 0.7045402
-0.30275258 0.059318304 0.1208946 0.06957163 -0.18498297 0.6033472 -1.2857956 0.44455317
0.1861833 0.25591922 0.23014162 0.28092918 0.69239086 0.2869116 0.20789778 -0.310192
0.7572882 0.10443928 0.027299346 0.75482327 0.21376689 0.47342968 0.020076033 -0.37818912
0.23119123 -0.26401618 0.044403076 -0.18560296 0.9110422 0.028878462 0.6570014 -0.15352492
1.5685598 -0.40516725 1.3015333 0.16460773 0.6835748 0.020709844 0.1320131 0.8954807
-0.602559 0.5243881 0.40706608 -0.005705091 0.39753833 0.13541655 0.09910545 1.2306669
0.08395869 0.5094968 0.33805168 0.7866525 2.773069 0.22992863 -0.11251029 -0.27763724
-1.0449526 -0.26975957 -0.1978456 -0.07566551 0.07823908 0.15368201 0.5162653 1.1837682
-0.24430996 0.38492656 0.053774554 0.17762698 0.029587252 0.54848355 -1.0203943 0.45546082
0.29522794 0.32226127 0.5607905 0.07556716 1.3337933 0.18118237 0.502777 -0.24202064
1.046912 -0.04501813 0.17954351 0.4440195 0.041170962 0.5396689 0.11789989 -0.9859683
0.0643207 0.16102953 -0.0042034807 -0.21812852 1.1871991 0.35943675 0.20335627 0.020494562
1.8660066 -0.041874547 1.4984262 0.33844727 0.7438068 0.09530284 0.22379452 0.00439838
-0.59774923 0.5653954 0.5421648 -0.05645885 0.35656333 0.19092631 0.12429814 1.104642
0.14029464 1.0497516 0.027414054 0.21416481 2.624944 0.18393299 0.06985536 0.088371284
-1.0839785 -0.22721983 -0.30138096 -0.03851787 0.061186656 0.31608897 0.68091154 0.84208846
-0.13369207 -0.005145979 0.1669324 0.12817271 0.16579646 0.5168454 -0.7202178 0.13622521

fc2.bias f4 [64]
00000000: d3a1 2cbc 6f0c 12be b350 b5be c9de 24be
00000010: 41f7 58be 1307 5dbe b048 653f 3b84 ad3d
00000020: 8e9a 853c 7409 e8bd 3674 84be ef11 53bd
00000030: 7f78 3cbe 2734 31bd 4002 28bf 081f 2d3f
00000040: 9693 08bb b365 273e 0bcf 06bf 9a30 14be
00000050: a627 9dbe 9afd cdbd fcdc b63e aa68 23be
00000060: 67bc 8bbe ebf2 423e c8d8 72bd 3538 50be
00000070: 418f e5bd a3d6 cabe e4b5 5b3f 8344 403f
00000080: cdb8 9abe f2cf 033e fd42 84be 107b 07be
00000090: 1cd5 afbd 3455 31bd ec90 69be c2ca 8d3e
000000a0: a5bf 1abe 64f8 113c 746a 1a3f 9676 403e
000000b0: 7482 9f3d f9f5 a73d 2c7a f1bd 1082 6bbe
000000c0: 5919 64be 485c 83be f901 94bd 75ec 32bd
000000d0: f822 7e3f 3503 893e 072e 30be 8868 03be
000000e0: d5ad efbd 3621 83bd f67e 22be a0e1 68be
000000f0: 58ba 96be 319c 17be 57b3 e43e aaff 29be
-0.010536629 -0.14262556 -0.3541313 -0.16100611 -0.2118807 -0.2158473 0.8956404 0.084724866
0.016309049 -0.11329928 -0.25869912 -0.051530775 -0.1840534 -0.043262627 -0.65628433 0.67625475
-0.0020839921 0.16347389 -0.5265967 -0.14471665 -0.30694312 -0.10058136 0.35715473 -0.15957895
-0.27292177 0.19037978 -0.05928877 -0.20333941 -0.11208964 -0.3961688 0.8582442 0.7510454
-0.30219117 0.12872294 -0.25832358 -0.13230538 -0.08585569 -0.043294147 -0.2280919 0.27693754
-0.15112169 0.008909319 0.60318685 0.18795237 0.07788554 0.082012124 -0.117908806 -0.22998834
-0.22275294 -0.25656343 -0.07226939 -0.043682534 0.9927211 0.2676026 -0.17205058 -0.12832844
-0.11703078 -0.06402819 -0.15868744 -0.22742319 -0.29439044 -0.14805676 0.44668075 -0.16601434

fc3.weight f4 [4, 64]
00000000: 7280 94be 3461 e4be aec7 6ebf dbbf 1abf
00000010: af13 31bf 25e5 6abf 33db f53f 5faf e1bf
00000020: f7a1 efbd 4c0a 1d3d 3f1c 45bf 2e61 ce3e
00000030: 84bf 53bf 5863 50bb e519 3bbe 463f 2240
00000040: 4f33 653d 94c7 adbe d201 973f 5f2b e1be
00000050: 0a96 83bf 7280 85be fb15 ba3f 1f2f 1abf
00000060: 0555 2abf f0f2 2d40 a0cc 06c0 ac25 3abf
00000070: 6447 2fbf 9188 37bf 9749 9f3f 5d45 3640
00000080: f9f0 2abf a90e 56bf 93bd 15bf 80d2 c2bd
00000090: 3c0a ccbf 2999 f6be e6af 24bf b639 0a40
000000a0: 5619 22bf f5aa b3be f031 bc3f 8fda e43d
000000b0: e84f 51bf ccf3 05bd a041 703d 048d 01bf
000000c0: e6db 4cbf 9f5d 1b40 7525 e4be 204f 01bf
000000d0: 363c 2240 9169 803f a4cc e5be f1d8 5a3c
000000e0: 5401 51bf b5b0 fabe 21ea 42bf feee fcbe
000000f0: 8e27 70bf 0e3d 12bf a07c bf3f b652 3fbf
00000100: c6de adbb d07e 14bf 10f2 1ebf db23 24bf
00000110: 4c5f 08bf 0807 32bf 2e70 d33f 288a 4dbf
00000120: a43c bf3d e95a 83bd eb34 2dbf e636 d53b
00000130: 85c8 9abe a6d4 6cbd 5ea7 a1bf de19 2840
00000140: 649a f6bb 5ab3 c2be 67ce 5bbe 7aad 34bf
00000150: 7585 b1be 000a 79bf 1ea9 ce3f 80b2 2abf
00000160: 5812 f9be bcb3 1b40 ed3f 07bf 1aa0 32bf
00000170: edfb 26bf 21f8 70bf 72d1 993f 1b73 5d40
00000180: 7a2f 39bf aa4f 9bbf 19c9 13bf cd45 bd3d
00000190: dae8 38bf 1907 aebf 2a2e 18bf 9b02 b13f
000001a0: 70c5 3abf 486a 16bf 4adf cd3f 3791 1b3f
000001b0: 5b43 9ebf 601a 2f3c 41cc b73d 4b86 28bf
000001c0: a423 40bf eade 3840 7a0f 8abf 067e 24bf
000001d0: 1d98 2740 ddf9 1f3e e1d0 44bf 1328 0fbd
000001e0: 0836 9ebf 6ec1 01bf 508e 9ebf 13fb 63bf
000001f0: 5369 08bf 0fbd e1be 444c c63f f47c 5ebf
00000200: 02e6 d3bf 21ad 7ebf 7c4b 0ebf 4af2 76be
00000210: e6ab 8f3e a3c6 afbe 7812 0240 9853 d2be
00000220: d7bc 8d3d aadd 983d 6c8b 17bf 1c09 b23f
00000230: e2dd 2cbf deca b2bd d44a 4ebf 15fb 2d40
00000240: f39a dc3c 62f5 28c0 55c3 cd3e 03c5 28bf
00000250: 6c75 6d3e e8d8 9b3f 7ec4 c03f f157 f1be
00000260: b5df 0abf faed 1e40 a15a c0bf 9dd6 36bf
00000270: cfdb 4fbf a2fb 06be b724 bc3f 6ba4 1040
00000280: afd1 efbe cd1e 98bf 5b49 01bf fe1d 88bd
00000290: e27f 833e 0b4a 2fbf a8c8 bfbe 9aeb ce3f
000002a0: 84e4 10bf 2d5d 8fbf 752e 5d3f f43a 713f
000002b0: ea61 19bf c0fa 4dbb d66e 98bd ac8f 34bf
000002c0: f1cb b2be fcd4 c0be 2670 60bf 034d 6abf
000002d0: 8ff3 0140 bd5c 25be db14 efbe 6858 1e3d
000002e0: 83a8 b4be 9c34 39bf d57d 0bbf 0d46 9bbe
000002f0: 1a7c bfbe 4400 36bf 35fe b63f 99f9 19bf
00000300: 7a90 b0be b3cb c6be 3e6d cbbe 373b 01bf
00000310: 8061 4bbf e8e2 f33c 28ca 0040 8957 1bc0
00000320: 12a4 1b3d 4a33 03bd 0889 c3be a8be bc3f
00000330: 7bb6 78bf 5b5d 89bd 469e c5be c8c2 0d40
00000340: f5c2 02bc 32ec c53e 0bce 863f c088 31bf
00000350: 48f2 29bf 5e11 123e 50e1 e83f e60a bdbf
00000360: 232f 06bf 4f23 2740 e340 c1bf 8c30 0bbf
00000370: 103e e9be 9325 e3be 7699 a43f cb27 5040
00000380: 60bd 0bbf fe82 87bd 7854 1abf e62d 84bd
00000390: 26e1 113e ecea 40bf 8c97 24bf 69a2 1240
000003a0: d188 7cbf 010b 66bf a7a9 903f 7c6d f9be
000003b0: a0b5 133f 97ff d2bd 1868 2d3d b22a 17bf
000003c0: 7384 15bf 2343 1240 092a f8be ea27 e2be
000003d0: a618 3e40 326a f03e 2eac 1cbf ea85 803b
000003e0: 47b8 dd3d e160 5dbf 10be 1dbe f629 1fbf
000003f0: 11e5 afbe 35bb 84bf 060d 8a3f 19a6 edbe
-0.29004246 -0.4460541 -0.9327344 -0.60449 -0.6917066 -0.91755897 1.9207519 -1.7631644
-0.11700814 0.038339898 -0.76996225 0.40308517 -0.82714105 -0.0031797495 -0.18271597 2.535112
0.055957135 -0.3394133 1.179743 -0.43978402 -1.0280163 -0.26074558 1.4537958 -0.6022815
-0.6653598 2.7179527 -2.1062393 -0.7271373 -0.6846831 -0.7169276 1.2444333 2.8479836
-0.66773945 -0.8361612 -0.5849239 -0.09512806 -1.5940623 -0.48163727 -0.643309 2.1597724
-0.6331991 -0.35091367 1.470274 0.11174499 -0.8176255 -0.032703206 0.058656335 -0.506058
-0.8002304 2.4275892 -0.44559827 -0.5051136 2.534925 1.0032216 -0.4488269 0.013357387
-0.8164265 -0.48962942 -0.761385 -0.49401087 -0.93810356 -0.5712441 1.4959908 -0.7473558
-0.0053060977 -0.58006 -0.6208811 -0.6411721 -0.5327041 -0.6954198 1.651861 -0.80288935
0.09337738 -0.06413824 -0.6765887 0.0065067885 -0.3023111 -0.057819985 -1.2629201 2.6265788
-0.007525729 -0.3802746 -0.21465455 -0.70577204 -0.34672132 -0.97280884 1.614536 -0.6667862
-0.48646808 2.432845 -0.5283192 -0.69775546 -0.6522816 -0.94128615 1.2017043 3.4601505
-0.7233807 -1.2133687 -0.57728726 0.09241829 -0.72230303 -1.3595916 -0.5944544 1.382892
-0.72957516 -0.5875592 1.6083767 0.60768455 -1.2364305 0.010687441 0.08974505 -0.65829915
-0.75054383 2.8886056 -1.0785973 -0.64254797 2.6186593 0.15622659 -0.76881224 -0.034950327
-1.2360239 -0.50685775 -1.238718 -0.89054984 -0.5328571 -0.44089553 1.5492024 -0.86909413
-1.6554568 -0.99482924 -0.5558393 -0.24115863 0.28060836 -0.34331235 2.0323772 -0.41079402
0.06920784 0.07464154 -0.59197116 1.390903 -0.67526066 -0.087301 -0.8058293 2.7184498
0.026929354 -2.639977 0.4018809 -0.65925616 0.23189324 1.217557 1.5059965 -0.47137406
-0.542476 2.483275 -1.5027658 -0.71421224 -0.81194776 -0.13181928 1.4698704 2.2600353
-0.46839663 -1.18844 -0.50502557 -0.066463456 0.25683504 -0.68472356 -0.37457776 1.616565
-0.5659869 -1.120031 0.8639901 0.9423058 -0.5991503 -0.0031429976 -0.07443015 -0.70531726
-0.3492122 -0.37662494 -0.87671125 -0.9152376 2.0304906 -0.16148658 -0.466956 0.03865853
-0.35284814 -0.723459 -0.5448888 -0.30326882 -0.3739937 -0.71094155 1.4296328 -0.6014648
-0.34485227 -0.38827285 -0.39731783 -0.5048098 -0.7944565 0.029771283 2.0123386 -2.4272177
0.037998267 -0.032031335 -0.38190484 1.4745684 -0.97153443 -0.06707259 -0.38597316 2.2150135
-0.007981052 0.38656765 1.0531629 -0.6934929 -0.66385317 0.14264438 1.819376 -1.4768951
-0.52415675 2.61153 -1.5097927 -0.5437095 -0.45555162 -0.44364604 1.2859333 3.2524288
-0.5458584 -0.06616782 -0.6028514 -0.06454067 0.14246044 -0.7535846 -0.6429374 2.2911627
-0.98646265 -0.8986054 1.1301774 -0.48716342 0.5769901 -0.10302656 0.0423356 -0.5904952
-0.58405226 2.2853477 -0.4846957 -0.44171077 2.9702544 0.4695602 -0.61200225 0.003922214
0.10826164 -0.8647595 -0.15404534 -0.621734 -0.3435445 -1.0369631 1.0785224 -0.46415785

fc3.bias f4 [4]
00000000: 4a1f 003f 433e 313f 935d e43e 36ca 04be
0.50047743 0.6923563 0.4460264 -0.12967762
